…
 40  	               target_model_update=1e-2, policy=policy)
 41  	dqn.compile(Adam(lr=1e-3), metrics=['mae'])
 42  	
 43  	# Okay, now it's time to learn something! We visualize the training here for show, but this
 44  	# slows down training quite a lot. You can always safely abort the training prematurely using



(Pdb) c
Using TensorFlow backend.
[2018-01-19 16:06:14,733] Making new env: CartPole-v0
_________________________________________________________________
Layer (type)                 Output Shape              Param #   
=================================================================
flatten_1 (Flatten)          (None, 4)                 0         
_________________________________________________________________
dense_1 (Dense)              (None, 16)                80        
_________________________________________________________________
activation_1 (Activation)    (None, 16)                0         
_________________________________________________________________
dense_2 (Dense)              (None, 16)                272       
_________________________________________________________________
activation_2 (Activation)    (None, 16)                0         
_________________________________________________________________
dense_3 (Dense)              (None, 16)                272       
_________________________________________________________________
activation_3 (Activation)    (None, 16)                0         
_________________________________________________________________
dense_4 (Dense)              (None, 2)                 34        
_________________________________________________________________
activation_4 (Activation)    (None, 2)                 0         
=================================================================
Total params: 658
Trainable params: 658
Non-trainable params: 0
_________________________________________________________________
None
> /home/agent4/keras-rl/examples/dqn_cartpole.py(39)&lt;module>()
-> dqn = DQNAgent(model=model, nb_actions=nb_actions, memory=memory, nb_steps_warmup=10,
(Pdb)
</code>
