<code class='bash'>
agent4@agent4:~/keras-rl $ python examples/dqn_cartpole.py
Using TensorFlow backend.
[2018-01-22 03:28:04,630] Making new env: CartPole-v0
_________________________________________________________________
Layer (type)                 Output Shape              Param #   
=================================================================
flatten_1 (Flatten)          (None, 4)                 0         
_________________________________________________________________
dense_1 (Dense)              (None, 16)                80        
_________________________________________________________________
activation_1 (Activation)    (None, 16)                0         
_________________________________________________________________
dense_2 (Dense)              (None, 16)                272       
_________________________________________________________________
activation_2 (Activation)    (None, 16)                0         
_________________________________________________________________
dense_3 (Dense)              (None, 16)                272       
_________________________________________________________________
activation_3 (Activation)    (None, 16)                0         
_________________________________________________________________
dense_4 (Dense)              (None, 2)                 34        
_________________________________________________________________
activation_4 (Activation)    (None, 2)                 0         
=================================================================
Total params: 658
Trainable params: 658
Non-trainable params: 0
_________________________________________________________________
None
2018-01-22 03:28:04.728111: W tensorflow/core/platform/cpu_feature_guard.cc:45]
2018-01-22 03:28:04.728158: W tensorflow/core/platform/cpu_feature_guard.cc:45]
2018-01-22 03:28:04.728174: W tensorflow/core/platform/cpu_feature_guard.cc:45]
…
